classifier/model_cnn.pth (torch, 436009 bytes, 8 tensors)

conv1.weight f4 [6, 3, 5, 5]
00000000: 0d6e 113e 9e3b 863b 0149 5e3e 04d2 e23d
00000010: 4859 403e cf98 f3bc b5ba 9d3d a8e7 553e
00000020: c644 893e 6d08 4a3d 9c39 7fbd fb7e 9b3d
00000030: 2568 afbd 301c 6cbe f0ce e1bd 79be 10be
00000040: 3b45 28be c5b2 51bd 37e8 3abe 82d8 293d
00000050: 522d 2abd fecf 9e3b 7fa6 9bbd 9c31 763d
00000060: 0cf5 a9bd 481f c8bd f8e5 903d 31aa 2f3e
00000070: e75d 423d a219 f83b 68b8 b43d d6c9 c73d
00000080: 8f2f 1abd 2073 5f3d a1da fabd 9e54 9fbd
00000090: 1ce1 12be 7063 90be 7145 a4be cfaa 7bbe
000000a0: 7fec 263d 694f 3fbd 2ce3 b4bd 80c3 37bd
000000b0: 6318 30be ac90 11bc 78fd a33d d8e9 64bd
000000c0: ee63 523e 832a 4a3e 8666 1d3d 5068 343d
000000d0: d293 2fb9 3ae4 cf3d 742e 86ba d223 aa3d
000000e0: 7983 a33d 96d3 af3d ac39 de3d 7d1a 033e
000000f0: e5bc c63b 3fa2 2f3d 7fec 84be 68b5 32be
00000100: d653 61be ee84 c93c 46e7 fabb b0e6 19be
00000110: 70ad 3bbd d6a2 8cbc 5264 3e3d 2075 de3d
00000120: c1bf 9fbc 1645 303d ee1a 773e acef b0bc
00000130: 33d5 893d 09f3 c8bd c5e0 cdbd 0838 8e3d
00000140: 8a3f 82bd 6d16 7bbe 6080 81be 8da9 e03d
00000150: 1670 31be 06b4 7bbe 9239 b7bd fcf2 353d
00000160: 9e6b 113e e9a8 2dbe bd6c cdbd e6d2 1cbe
00000170: acdc 553e 81f4 4b3d 3c0b 98bc fc19 f43c
00000180: ba42 7c3d 2173 95bc 4f31 63bd cf19 f0bc
00000190: 603b 093e 699a 173e de80 073e cb4d 1f3e
000001a0: 89f0 9f3d 384a 3a3e 5cd6 14bd b94a febd
000001b0: 6285 4c3e 429a e9bd a6b9 6cbd 7533 e6bd
000001c0: f52a 263e 1457 6f3e 6c3c d1bd 96ab 01b8
000001d0: 9876 483d e997 8a3e ad2f 6d3e 0231 033e
000001e0: 8777 1c3d 11d6 bd3d 5161 223d 7716 3cbe
000001f0: fcfa 253e 7013 883d 9fb2 febd 124f 18be
00000200: 1171 d23c 10fa 213d c681 153e 12d9 e9bd
00000210: 934a 94bd 9477 3ebd 55c7 29be 3c16 f8bd
00000220: 47fa 5bbe c7ee 1a3d 974c 473c 7b36 2cbe
00000230: bc3f ccbd dbdc e7bb 53ea 593e b2e5 c93d
00000240: 89d2 283c b2a5 1f3e 30fe d3bd 9618 1ebd
00000250: a04d 22be d2e4 a2bd 30d2 a3be 735e aabe
00000260: bdf8 0fbe 059d 07be eabc 903d e408 95bd
00000270: 3896 e3bd 44e8 59be b262 42be 891c 843c
00000280: 2804 113e a2d7 40bd 5a2c 07bb 16dc 203e
00000290: 98fd 933e ed87 d33d 1fb4 da3d 9e24 2a3d
000002a0: 6aea a33c 1f10 733e b4e2 e03d 322d 2c3b
000002b0: fac2 b33d 94b2 613e f5c0 17bc 5eb9 9e3c
000002c0: 9b6b 6d3d 64ea ab3b e16e 9c3d c78c 1e3e
000002d0: 78fc e0bd 3b63 12be f6e0 68be 9771 81be
000002e0: f5e3 6f3d eff2 2ebe 7986 71be 7df9 4bbe
000002f0: 750b 55be d059 fa3d b89a aebd 6efc a2bd
00000300: 1fca 12be 710b 9d3d 1402 b83d db92 21be
00000310: 65ea 18be 1390 053c 305f 903d 311f 9e3d
00000320: c664 873e 3cb5 883d 24b7 403e 3017 8b3d
00000330: 3033 1e3e aa02 633d f777 273d 35c3 aeba
00000340: 051f 36be 2c79 70b9 7784 2cbd 70bf 10be
00000350: 6c3b 1fbe 6d52 11bd 9dd0 673d 8437 9abd
00000360: efa5 23be b664 623c 686b 173d 1242 5c3d
00000370: 6b02 52bb 0bcb 813d 82de dc3c 6884 ba3d
00000380: 2e98 74bc 16b1 a73d be62 4e3d 5199 28bd
00000390: 81fa 9abd 4541 333d 83b6 c4bd e388 f6bd
000003a0: ad04 1ebd 6931 29bd 597a c63d 71b5 86bd
000003b0: bbe6 7abd 9372 74be ff5d 42be ef87 99bd
000003c0: 70ac 01be 6c2d 26be 23aa 25be 91e3 88bd
000003d0: a173 913c 243f fcbd d449 193c 5b6a 9fbd
000003e0: 0ffb 39be fd3d 1fbe 6160 01be 538b 10bd
000003f0: 1efe 413b 6380 703d f650 313d 3d58 5d3d
0.14202137 0.0040964624 0.21707536 0.110752136 0.18784058 -0.02973595 0.07701627 0.20889151
0.26810282 0.04932444 -0.0623108 0.07592579 -0.08564786 -0.23057628 -0.11025798 -0.1413516
-0.1643266 -0.05119588 -0.18252645 0.041466244 -0.041547127 0.004846572 -0.07600116 0.060105905
-0.08298692 -0.097715914 0.07075113 0.17154767 0.047452834 0.007571415 0.08824235 0.09755294
-0.03764301 0.05455315 -0.122487314 -0.07779811 -0.14343685 -0.28200865 -0.3208423 -0.24576877
0.040752884 -0.04670659 -0.08832392 -0.044864178 -0.17196803 -0.00888459 0.0800733 -0.055887073
0.20545933 0.1974278 0.038427852 0.044044793 -0.00016744368 0.10150953 -0.0010237233 0.083076134
0.07984061 0.08585279 0.10850844 0.12803073 0.0060649985 0.04287934 -0.25961682 -0.17452013
-0.22004637 0.024599519 -0.0076569645 -0.15029407 -0.0458197 -0.01716749 0.04648239 0.108621836
-0.019500615 0.043034635 0.24131367 -0.02159866 0.06730118 -0.0981198 -0.10052637 0.06944281
-0.06359775 -0.24520274 -0.25293255 0.10969839 -0.17327914 -0.24580392 -0.089465275 0.04442118
0.14201209 -0.16958965 -0.10030506 -0.15314826 0.20884961 0.049793724 -0.018560044 0.029797547
0.061587073 -0.018243374 -0.055466946 -0.029309181 0.13401556 0.14804997 0.13232753 0.1555702
0.0780955 0.18192375 -0.03633724 -0.12416596 0.19972757 -0.114063755 -0.057794236 -0.112402834
0.16227324 0.23373061 -0.10216603 -3.09158e-05 0.048941225 0.27069023 0.23162718 0.12811664
0.038199928 0.092693456 0.03964359 -0.18367945 0.16209024 0.066443324 -0.12436413 -0.14873913
0.02568868 0.03954512 0.14600286 -0.11418356 -0.072407864 -0.046500757 -0.16579945 -0.12113616
-0.21482192 0.037825372 0.012164257 -0.16817658 -0.09973094 -0.0070758886 0.21280794 0.09858264
0.010304102 0.15590551 -0.10351217 -0.038597666 -0.15849924 -0.079538 -0.31996298 -0.33275184
-0.1405973 -0.13243492 0.070672825 -0.072770864 -0.11112636 -0.21280009 -0.18982962 0.016126888
0.14161742 -0.047080643 -0.00206258 0.15708956 0.28904414 0.1032866 0.106788866 0.041538827
0.020009238 0.23736618 0.1098074 0.0026272056 0.08777423 0.22040778 -0.009262313 0.0193755
0.05796395 0.0052464474 0.07638336 0.1548339 -0.109856546 -0.14295666 -0.22742066 -0.25281975
0.058567006 -0.1708486 -0.23586453 -0.19919391 -0.20805152 0.122241616 -0.08525604 -0.079583034
-0.14334916 0.07668198 0.08984771 -0.15778677 -0.14933164 0.008152026 0.070494056 0.07720793
0.26444072 0.06675193 0.18819863 0.06791532 0.15449214 0.055422463 0.04088589 -0.0013333323
-0.1778527 -0.00022933324 -0.042118516 -0.14135528 -0.15550011 -0.035478998 0.056595434 -0.0753012
-0.15981267 0.013817957 0.036967665 0.053773947 -0.0032044898 0.063375555 0.026961569 0.09107286
-0.014928861 0.08188073 0.050387137 -0.04116184 -0.07567311 0.043763418 -0.09605124 -0.12037828
-0.038578678 -0.041306887 0.09691305 -0.06577576 -0.061255198 -0.23871832 -0.18981169 -0.074966304
-0.12663436 -0.16228265 -0.16178183 -0.0668403 0.017755331 -0.123167306 0.009355981 -0.077839576
-0.18162178 -0.1555099 -0.12634422 -0.03528912 0.0029600929 0.05871619 0.0432901 0.05403923

conv1.bias f4 [6]
00000000: f2d3 00bd 5a27 c13d b210 6e3d 323b ce3d
00000010: a4b7 4cbe d90e acbb
-0.031452127 0.09431334 0.05812139 0.10069884 -0.19991928 -0.0052507934

conv2.weight f4 [16, 6, 5, 5]
00000000: e190 013e 7856 233e 6419 633e 3171 fe3d
00000010: a4ad 553e 52a0 fc3d eed0 cdbd 9ce4 47ba
00000020: 09ae 823e 9bc4 283e 2843 783d af92 3b3e
00000030: 48b9 853e 4941 2b3e c625 643d 8cb6 993d
00000040: 1b80 843e 6d4e 963e 3308 863e 8045 91bc
00000050: 5ec1 653e 1596 a43d e838 c8bc 37de 02bd
00000060: dd76 cf3d 6e7c 9e3d 1b96 04be acc1 013d
00000070: 9556 a93d 07b9 97bd 63ff 093e 566c 2d3e
00000080: e7ef bb3d 4a7b c5bd 628f 8abd 5825 b73d
00000090: 6c27 d43d e399 8f3d f662 833e 6373 463e
000000a0: 039d cdbd 26df 2cbe df50 a63d 8343 373d
000000b0: 0b2a 323d 9ffe 06be b339 163d 6989 ebbd
000000c0: 0096 f0bd 829e 2ebd 2193 83bc a656 89bd
000000d0: 94aa d4bd 9372 a93c d560 043d 4938 15be
000000e0: f2c0 a5bc c695 c03c bd78 a7bd e0af fd3d
000000f0: 8311 15bd 6c43 ec3d fbff 283e 2f6d 85bd
00000100: 5d39 753d bd4b 68bd 7d41 0bbe 0488 a3bd
00000110: 9167 b9bc 4b26 80bc 7dd4 f83c c445 493d
00000120: 7a80 c33d f1ac 913d a93d c13d 762d d0bc
00000130: d7d4 c7bc 433c 813d 66fd cdbc 2e25 083e
00000140: cea6 40bd 8678 2f3d f7fd 1c3d f483 8c3d
00000150: 4b6c 9a3d ece9 29be 98f2 333d 9bc1 863c
00000160: d978 8d3d 36cc cf3c 828c aabd a4e8 1bbd
00000170: b7ff ddbc f695 1fbe 29af 84bd f451 58bd
00000180: 28f6 aa3b a37e 953b 63db 6b3d c05b a43d
00000190: 5cff 413d da93 9b3d 4176 5c3d 00a0 fcbc
000001a0: 85cd febc 5694 71bc 044f d93d cde2 9c3d
000001b0: e591 2c3d c1f2 aebd 1670 cbbc 6938 cdbd
000001c0: a43a 48be fa8f 0fbe d32d 22bd d9fe 2ebb
000001d0: 3454 2abd b232 9e3d c9d6 f33c 22d4 823c
000001e0: 0df3 053d 7097 a23d 228a 0d3e 8eac f43c
000001f0: a6b8 f83d 4abf ea3d 4dc3 83bb 7f51 9ebd
00000200: 8534 2abe 9a03 9abc 09c7 223c d673 4dbd
00000210: 00bc 4abe 5859 3abd 0db2 07bd bf06 303d
00000220: 7ab4 a23b d3e4 983d 11b7 8c3b 624a c6bd
00000230: 52bf 063e 2414 183e bc0b 043e 42d3 1abe
00000240: e7a0 33bd df66 d2bd 2214 c4bd 8756 40be
00000250: 91ff 16be 7a2d 58bd 96df d93a f129 9abd
00000260: 64fe 553b db16 c93c 180a 97bd ebe1 04be
00000270: b32b 78bc d373 89bc 9e81 d2bd cc51 83bc
00000280: 5537 b1bc d6c2 04bd b66f be3c c193 9b3c
00000290: 84c7 29bc 5855 043a 4c32 443d 348d 61bb
000002a0: 2bf0 c3bc d4e3 71bd 96a6 5abd 8633 eebd
000002b0: 8415 063d 998a c13c c46b 27bd 3b63 14bd
000002c0: 2f13 243d 7c21 45bd c898 cdbd f5b6 1e3d
000002d0: 4bda 013d b9f7 603d 63ad 3e3d fbbc 9ebd
000002e0: 8422 adbd cf95 72bd 80a1 a43c 94c7 983d
000002f0: e411 86bd 7b9b 37bd f06a 6b3d 212c 9cbc
00000300: ebd0 21bd 27fa 75bd 4bab a9bd 9eee 343d
00000310: 3dd3 aa3c 2d55 51bd 1cc9 44bc 7b4a 98bd
00000320: d671 2fbd a761 f33c 8b3b 5d3d d450 a1bd
00000330: 546f bdbb df1b 37bd 7a52 98bc 9bb1 353d
00000340: 78cc 943d 7153 6dbd 2f5e 79bd ef46 b2bd
00000350: 15f5 66bd f620 cabc 3067 14bd 67de 0e3b
00000360: 2cb1 06bd 9db9 7d3d 77cf 9c3c c5aa ebbc
00000370: ae9e f3bc 0434 c9bc be70 373d eea0 9d3c
00000380: d455 e43c 1172 333d daa4 aa3a db4b 623d
00000390: 669f d0bd 8ab3 15bc c9c9 673d c8b7 8ebd
000003a0: b25f 7bbd c09a b1bd 8878 c9bc 2cc7 533d
000003b0: f219 8abc 4fa6 5d3d b2c7 93bb 2c49 033d
000003c0: 24c6 593d 0321 60bd e710 0c3d 5f4e 0cbd
000003d0: 6850 df3b b9a3 57bc f181 5d3a e92f 18bb
000003e0: 0de8 333d b342 8b3c 3670 82bb de85 b7bd
000003f0: 6cfd 103d f558 91bd 7c9a 04bd 30e4 1bbd
0.12652923 0.15950954 0.22177655 0.12423933 0.2086702 0.12335266 -0.10049616 -0.0007625313
0.25523403 0.16481249 0.06061092 0.18317674 0.2611792 0.16724123 0.055700086 0.07505521
0.25878987 0.2935671 0.2617813 -0.017733335 0.22437045 0.080364384 -0.024441198 -0.0319502
0.10130093 0.07738577 -0.12947886 0.03167884 0.08268467 -0.07408338 0.13476329 0.16935858
0.09176617 -0.09642656 -0.06765629 0.0894267 0.103590816 0.070117734 0.2566144 0.19379954
-0.10039713 -0.16882 0.08120894 0.04474212 0.043497127 -0.13183068 0.03667612 -0.11500818
-0.1174736 -0.042631634 -0.016061367 -0.0670598 -0.10384098 0.020684516 0.03231891 -0.14572252
-0.020233605 0.023508918 -0.08177326 0.12387061 -0.036393654 0.11536297 0.16503899 -0.06514966
0.05986916 -0.056712855 -0.135992 -0.07984927 -0.022632392 -0.01564326 0.03037476 0.0491388
0.09545989 0.07113064 0.09435589 -0.025412302 -0.024393482 0.06310322 -0.025145244 0.13295433
-0.047034077 0.04283955 0.038328137 0.068611056 0.075401865 -0.1659314 0.043932527 0.01644974
0.069078155 0.02536593 -0.08327581 -0.03806366 -0.027099473 -0.1558455 -0.06478722 -0.05281253
0.0052173324 0.0045622154 0.05758227 0.080253124 0.04736267 0.0759656 0.053823713 -0.030838013
-0.031103859 -0.014744839 0.10610774 0.07660446 0.042131323 -0.085423954 -0.02483372 -0.10020525
-0.1955362 -0.14019766 -0.039594483 -0.0026702194 -0.04158421 0.07724513 0.029765503 0.015970293
0.032702494 0.07939041 0.13822225 0.029867437 0.12144594 0.11462267 -0.0040210844 -0.07730388
-0.16621597 -0.018800545 0.009935149 -0.050159298 -0.19798279 -0.04549536 -0.033128787 0.042975184
0.004965362 0.0746552 0.004294284 -0.09682156 0.1315892 0.14851433 0.12895101 -0.15119651
-0.04385462 -0.10273527 -0.095741525 -0.18783008 -0.14745928 -0.052777745 0.001662242 -0.07527531
0.003265285 0.024547031 -0.07374972 -0.12976806 -0.015147137 -0.016778862 -0.10278629 -0.016030215
-0.02163283 -0.032412373 0.023246627 0.018991353 -0.01036251 0.00050481176 0.04789953 -0.003441644
-0.023918232 -0.059055164 -0.053381525 -0.11630921 0.032735363 0.023625659 -0.040874258 -0.036227446
0.040057357 -0.048127636 -0.10038906 0.0387487 0.03170232 0.054923747 0.046552073 -0.07750889
-0.08453849 -0.0592249 0.02009654 0.074599415 -0.06546381 -0.044826012 0.05747503 -0.019064011
-0.03950588 -0.060053017 -0.08284625 0.044172876 0.02085268 -0.05110662 -0.012010839 -0.07436081
-0.04283317 0.02970965 0.054011863 -0.07876745 -0.0057810936 -0.044704314 -0.018594015 0.04435883
0.07265562 -0.057940904 -0.060880836 -0.08704936 -0.056386072 -0.02467392 -0.03623122 0.0021800043
-0.032883808 0.061944593 0.019141896 -0.028767953 -0.02973875 -0.024560936 0.044785254 0.019241776
0.027872957 0.043809954 0.00130191 0.055248123 -0.10186653 -0.009137044 0.05658892 -0.06968647
-0.06137056 -0.08672094 -0.024593607 0.051703617 -0.016858075 0.054113682 -0.0045098895 0.032052204
0.053167477 -0.054718982 0.034195807 -0.034254428 0.006815005 -0.013161593 0.0008449844 -0.0023221916
0.043922473 0.016999578 -0.0039806617 -0.0896108 0.035397932 -0.07097045 -0.03237389 -0.038059413

conv2.bias f4 [16]
00000000: d9cf 3ebe 8a7f ffbd 76a2 9a3e 6669 95bc
00000010: fe12 223c 9167 373e b9a6 3a3d cc71 9abd
00000020: 0699 04be 1937 6bbc 68da 443e 7d0b bdbd
00000030: e6ec e5bd 5ac4 893e 3d45 923e 0aff 07be
-0.18633975 -0.12475498 0.30202073 -0.018238734 0.009892223 0.17910601 0.045569155 -0.07541236
-0.12948999 -0.014356398 0.1922394 -0.09230707 -0.112268254 0.26907617 0.2856845 -0.13280883

fc1.weight f4 [256, 400]
00000000: 1e0c 8cbb 19cd a3bc febd 51bd 3fc6 213c
00000010: 3fc5 83bd 483a 5abd f2f4 bcbb 28e8 ffbc
00000020: 698c 85bc 4d57 01bd 2586 79bd 8df5 63bc
00000030: 2ba7 9bbd 6a0e a4bd 9b13 47bd 3b3a 263c
00000040: b6c5 593b ce9c 25bd 3441 80bd 1c49 c1bc
00000050: bfaa 503c 48b6 9cbb 69e6 5dbd 9c5a 82bd
00000060: 9353 11bd e751 12bc 4d01 fcbb 9afd 4bba
00000070: 9bb1 f6bc 8df1 bdbb 0094 ec39 7f0c 023d
00000080: 4a10 293d 057b 413d cae9 ae3c d4ff 403d
00000090: c7cf c5bc 8d2c da3c 3a84 323c cd40 84bb
000000a0: a812 e73b 22a8 053d d282 083d e7e2 04bd
000000b0: 6062 bcbc ff90 013d 2524 453d 4de1 07bc
000000c0: cdab 4e3b d07e 3cbd ff3a 73bd de79 84bd
000000d0: 3acb 7fbb 901b 46bd 5051 84bc 321d 0b3d
000000e0: 2240 8e3c 37e7 50bd 267a 89bd 87bd 84bc
000000f0: 9901 cab9 81c6 953b 5c3b 34bc 7334 23bd
00000100: 26ea 28bc 101f fbbc adfd 04bc da3f f5bc
00000110: 68bd a9bc 97dc a33b 41e9 58bd aa01 14bc
00000120: ee5f 3bbd be84 65bd 77f1 4abd 23d2 55bd
00000130: b7bf 1ebd d97f 7dbc dcb7 84bd 0c50 59bd
00000140: d38e febc 0f4d 65bd 1f94 52bd 6dbf 923c
00000150: 7582 cfbc e0dd 63bd 607d 99ba 2b96 c33a
00000160: b473 6bbd 36c4 f7bc 4422 82ba 4219 60bc
00000170: 0d06 8cbd 793e b8bd 081f 5ebd 1ab5 9fbd
00000180: 5837 7ebd d1f9 4dbd ab65 293c 4a23 66bb
00000190: ebe3 cabc 9bd6 033b de08 ac3c e780 07bd
000001a0: 6674 16bd a7ee 48bc 6125 1cbd a75a 303c
000001b0: 62c3 8ebc 68f7 29bd 1858 9bbc dc33 9bbb
000001c0: 1710 71bc 35f2 6bbd 6d48 603b 5b41 71bc
000001d0: 7623 80bc a60d 8ebc cbe4 84bc 7263 85bc
000001e0: 7ee4 633c df92 94bd 1559 51bd 3e65 e43c
000001f0: 0c21 1abd 05f7 e1bb 91c3 b2bc c4bb d4bc
00000200: 2d46 ad3c 6c97 123d 9838 15bd 4042 3c3c
00000210: 5613 333d ce82 6cbb 5631 d7bc 0a1f ad3c
00000220: 7e88 f93c 88b4 1d3b 2aac 393c de36 0f3c
00000230: 14cf 333c 7da1 263d 0f2e 89bc a1f5 343c
00000240: b4b3 e1bc 4752 cabb 48f6 453d 9213 9c3c
00000250: 4e28 25bd ee3d 40bc ba3f 36bd 773e d13c
00000260: 133f a63c 2d92 c0bc 73ea 613c 1d24 7cbd
00000270: 6510 31bd e8da 45bd 0ae4 adbc 4dfa 77bb
00000280: 339c d83c 2a3c e0bc f909 11bd 6d61 12bc
00000290: 1a5e c5bc 0552 0fbd 2585 423d 931e 953c
000002a0: c13f 9cbd b0f9 82bc 0125 8f3c 003a c6bb
000002b0: 47f0 a2bc 2d17 b0bc 8b33 92bc e924 1bbc
000002c0: bbb6 8c3a 26a8 89bd 7754 07bb 741b 5dbb
000002d0: 467c 103d c9ac 26bd ce03 8abc 9801 3bbd
000002e0: cc20 4dbd a915 413c ba33 9fbb 43df 82bd
000002f0: 9797 acbc 13e3 903b cd4d 0abc c111 8b3c
00000300: 6722 7e3c cdc2 453c 0f3f 14bd abd5 0dbc
00000310: 026d 7ebd a3b5 14bd 6fd6 47bd f91a e0bc
00000320: 7cfd 35bd 0485 c03c a123 09bd 182b 89bd
00000330: bd13 503c fd60 03bd df0a 0cbd d331 77bc
00000340: 9960 213c 5cc4 9fbc 5bde 72bd 686b 43bd
00000350: e69c 75bd 1212 17bd 0af9 15bd 963e afbc
00000360: 3bbe 08bd bdf6 80bc bb7e abbc 8b8b 763c
00000370: 7e1a 49bc c86d 5dbc ab92 f13c 5c4f 83ba
00000380: c465 353c 4a99 c83b c802 e63c 7e2a 49bd
00000390: 2aac dd3c 1d52 98bc 7825 f73b aaf4 58bc
000003a0: 5c25 87bd 6cf9 2fbc 69f3 56bd f9eb b03a
000003b0: dc2e 14bd b1e5 1b3c cb1f 093b f362 a43c
000003c0: c2ca b33c af3a 07bd 8be4 3cbd 8adb c6bc
000003d0: 302d 603c b66b 53bc 3f9d c73c 014e 23bd
000003e0: 0c16 c23b 19eb d33b cdfe 8a3c bb12 2fbd
000003f0: ffd3 3abd 454a 5fbc 6657 67bd 8e9a 0cbc
-0.0042739054 -0.01999526 -0.05120658 0.009873926 -0.06434106 -0.053278238 -0.0057665044 -0.03123863
-0.016302304 -0.031577397 -0.060918946 -0.013913524 -0.07600244 -0.08010562 -0.04860268 0.010145719
0.0033229417 -0.040432744 -0.062624365 -0.023594432 0.012736022 -0.004782472 -0.054174814 -0.063649386
-0.035480093 -0.00893066 -0.0076905848 -0.0007781625 -0.030113986 -0.0057966174 0.00045123696 0.0317502
0.0412753 0.04723646 0.021351714 0.047118977 -0.024146928 0.026632572 0.010895783 -0.004036045
0.0070517845 0.032631047 0.033327885 -0.032442953 -0.022996128 0.03163242 0.048130173 -0.008293462
0.0031535507 -0.046019375 -0.059382435 -0.06468557 -0.0039031045 -0.04836613 -0.016152054 0.03396339
0.017364565 -0.051001754 -0.06712751 -0.016203655 -0.00038529633 0.0045707827 -0.0110004805 -0.03984494
-0.010309732 -0.03065446 -0.008117122 -0.029937673 -0.020720199 0.0050006616 -0.052956823 -0.0090336
-0.045745783 -0.056034796 -0.049546685 -0.052202355 -0.038757052 -0.015472376 -0.06480381 -0.053054854
-0.031073963 -0.055981692 -0.05141079 0.017913545 -0.025330761 -0.05563152 -0.0011710338 0.0014922073
-0.05748339 -0.030244928 -0.0009928425 -0.013677897 -0.068370916 -0.08996291 -0.054228812 -0.07798214
-0.0620645 -0.05028707 0.010339181 -0.0035116249 -0.024766883 0.0020116928 0.021000322 -0.033081915
-0.0367321 -0.01226393 -0.038121585 0.010763801 -0.01742715 -0.04149571 -0.018962905 -0.0047364067
-0.014713309 -0.057604033 0.0034222857 -0.014725055 -0.01564191 -0.017340492 -0.016222378 -0.01628277
0.013909457 -0.07254576 -0.051110346 0.027880307 -0.037629172 -0.006895902 -0.021821769 -0.02596844
0.021151626 0.03578894 -0.036430925 0.011490405 0.043719612 -0.0036088708 -0.026268642 0.021132965
0.030460592 0.0024063904 0.011332551 0.008741109 0.010974664 0.04068135 -0.016745595 0.011044891
-0.02755151 -0.006174359 0.048330575 0.0190523 -0.04032164 -0.011733515 -0.044494368 0.02554248
0.020293748 -0.023507202 0.013788807 -0.061557878 -0.043228526 -0.04830447 -0.021226902 -0.00378384
0.02644167 -0.027372438 -0.0354099 -0.008934361 -0.024092723 -0.03499033 0.047490258 0.018203055
-0.076293476 -0.0159882 0.0174737 -0.0060493946 -0.019889964 -0.021495426 -0.017846843 -0.009469249
0.001073561 -0.06721525 -0.002064971 -0.0033738287 0.035274766 -0.040692125 -0.016847517 -0.045655817
-0.050080106 0.011784949 -0.004858461 -0.0639024 -0.021068377 0.0044216006 -0.008441401 0.01697624
0.015511132 0.01207037 -0.03619295 -0.008656899 -0.062115677 -0.036306035 -0.048788484 -0.027356612
-0.044431195 0.023500927 -0.033481244 -0.066976726 0.0127000185 -0.032074917 -0.034190055 -0.015087563
0.009849691 -0.019502811 -0.059294086 -0.047709852 -0.059964083 -0.036882468 -0.036614455 -0.021392148
-0.033384543 -0.015742654 -0.020934453 0.015047918 -0.012274383 -0.013514943 0.029488882 -0.0010018158
0.011071626 0.006121789 0.028077498 -0.04911279 0.027059633 -0.018593842 0.0075423084 -0.013241926
-0.065989226 -0.010740619 -0.052478228 0.001349806 -0.0361775 0.009515212 0.002092349 0.020066714
0.021947268 -0.03301495 -0.046116393 -0.024274606 0.013682649 -0.012904098 0.024366973 -0.039869312
0.0059230383 0.006467235 0.016967202 -0.042742472 -0.04561233 -0.013628547 -0.056479834 -0.008581771

fc1.bias f4 [256]
00000000: 670a 25bd ce99 1ebe 68c9 8b3d f1ab 913e
00000010: 92d1 833e ea03 323e 643e 0b3e b010 c8bc
00000020: 3010 f6bc 51f1 11bd 8a10 3bbd 83b6 acbd
00000030: 36ad e83d 9bc5 3abd 3e08 8c3e 7d78 163e
00000040: f7e6 e8bd b88e 103e 586d bbbc da0d 5b3e
00000050: 3ede 50bd 1198 fe3d 3b19 813e 6e74 b83e
00000060: 95a8 573e 6cc0 8bbc d0de da3d 5227 353e
00000070: 3507 bf3d 7631 7f3e c653 7bbe 03fc 5b3c
00000080: 868d e43e f495 91bd d8c4 55bd f12d 073e
00000090: 24fb 3ebd 683d a83e 6da3 953d d441 9bbe
000000a0: 2952 07bc b3f0 ac3e 5883 763e 8e35 43bc
000000b0: c410 27bc c29d b33e 41f4 50bd 631c 78be
000000c0: d8b0 edbd b58d 4dbc 2f40 703e 60e3 13be
000000d0: ef1a 0c3e 0d03 a3bc e501 6bbd 76f4 973c
000000e0: a177 2fbe 7920 aebc 341e cfbe 3131 aebc
000000f0: 0ccf c03e bdad b33e 8f5c ec3e 9c42 b93b
00000100: 9d70 d93e 4c8e 973e 041b bc3e 6d6a 76bd
00000110: d70c 3f3c 9681 913c 84b1 f1bc b12d d33e
00000120: 64f8 233d 7934 913e 42f8 c0bd b56d 9ebd
00000130: 97bd bf3e f1dd 0f3d 86e4 b43c c277 943d
00000140: 6c6a a6bd 6c18 b73e c293 49bd 9987 01bd
00000150: fba7 993c a5f6 f43e ebd7 9dbd fc7c 07bd
00000160: f816 a6bd 2b37 483d 3f55 91be 49e2 81bd
00000170: 06bb a0bc 3d49 8cbc 5ca1 ac3d 58b2 09bc
00000180: 251c c83d 28f3 153e 6b0c 803d 6c18 a9bc
00000190: 03df 5cbe 8a11 753e e49e cf3e feed f4bc
000001a0: 7ffb 923e 9fe8 913e a432 413e 34a6 10bc
000001b0: eaff 66bd c28a 72bc 9e5a 99bd 603b 113d
000001c0: 1be3 00bd 8a6c a83e 588e 31be 7c29 703e
000001d0: 2d65 acbd 1502 19bc 4d08 8bbe 5e0c 5fbc
000001e0: a747 7c3d ddd8 d23e ea56 1d3f dc60 823e
000001f0: 170e 283e 9254 94bd f2b6 583e e2bb f7bd
00000200: c419 76bc a38d 2abe 6cba 9c3e 28b6 b03d
00000210: 1a96 53bd 0ea8 21be bd74 e3bd 9499 09bd
00000220: 9012 a63d 80c4 58bd 1003 993d 97e0 023e
00000230: ce93 ce3e e5b7 bdbd 1a2c 7a3d 04a9 7e3e
00000240: 88c1 33bd fe15 a0bc 68ef 783e 299c 5e3e
00000250: b8e4 d43e 4c3b 88be 7c14 9c3e 8161 b0bd
00000260: 45b7 263e 0aad 93bd 855e 9e3e 582f 22bc
00000270: 63ad b4bc 80b2 163f a2c1 2f3e 8363 e63e
00000280: 85e1 a4bc 49d5 273e ec11 213e 725e 92bb
00000290: 35fd f7bc 81a4 3abe f38c 57bd 5944 bb3d
000002a0: 4a39 2abd a310 c4bd e398 593d c6b7 343e
000002b0: d3e3 ed3e 307f 003d 380a f33e aa34 d93e
000002c0: b3ce 11bd 4b1c 44bd e39c cebb 719f 8ebd
000002d0: ba5b 3ebe ec04 31bd 765e dabe 2642 ad3c
000002e0: 604f aabd 8ccd 543d 66dd 99bd d822 073c
000002f0: 4c24 063f 6189 2ebd 9ae8 063e e665 bb3e
00000300: f335 9e3e 826e 463e 4571 9c3e 1bf1 003e
00000310: 95a7 36bd dbc7 26bd bafb 9fbd 4690 3abd
00000320: 92fb c13d 7fed 0d3f f7b0 783e 63e3 0fbd
00000330: c5b2 2bbd 9315 21bd e523 9fbd 76e4 583d
00000340: 1e40 86bd f1f3 a13d b7aa 003a 0685 9bbd
00000350: c163 44bd 20e2 c5bc 2243 b3bd b0c4 d93e
00000360: cd37 153f b862 fa3e 010b 023c b578 74bb
00000370: 5853 f5bc 7327 003f 0a50 20bd 072c 95bd
00000380: 2a99 b83e d430 2ebd 3159 80bd 4cb0 d03e
00000390: c941 7cbd 7e01 a13e 16ec 6fbd c718 573e
000003a0: fa8e 22bd 9f77 c0bc ccbd 433e 9480 063c
000003b0: e9f6 c9bc 458c 003c 758c c8bd f9cf 86bb
000003c0: 5ea2 ba3e 494a bc3d fb12 4cbd 8ad8 d43d
000003d0: aea7 963d 553b 073e 8712 a03e 1419 363e
000003e0: c9b2 dabd aa09 5e3e 6057 b73e 0213 bdbe
000003f0: 4ba6 b03d 4615 f53e adc4 29bd ec77 74bd
-0.040293124 -0.1548836 0.068255246 0.28451493 0.25745827 0.17384306 0.13598019 -0.02442202
-0.030037016 -0.035630528 -0.04567007 -0.08433249 0.11361162 -0.045598608 0.27350038 0.146944
-0.11372178 0.14116943 -0.022879288 0.21392003 -0.050993197 0.12431348 0.25214562 0.3602633
0.21060403 -0.017059527 0.10687029 0.17690781 0.093275465 0.24921212 -0.24543676 0.0134267835
0.44639224 -0.071086794 -0.052189678 0.13201119 -0.046626225 0.3285935 0.073065616 -0.3032366
-0.008259335 0.3377739 0.24073541 -0.011914624 -0.010196868 0.35081297 -0.05101419 -0.24229579
-0.11605996 -0.012545993 0.23461984 -0.14442205 0.1368215 -0.019898916 -0.057374854 0.018549185
-0.17135479 -0.021255719 -0.4045273 -0.02126369 0.37657964 0.3509349 0.46164367 0.0056536924
0.4246873 0.2960075 0.3673936 -0.06016009 0.011660776 0.017761987 -0.029503591 0.41245797
0.040031806 0.28360346 -0.094223514 -0.07735769 0.37449333 0.03512377 0.022081625 0.072494045
-0.08125767 0.3576082 -0.04921318 -0.031623457 0.018756857 0.47844425 -0.07707199 -0.03307818
-0.0810985 0.048880737 -0.2838535 -0.063419886 -0.01962043 -0.017124766 0.08429214 -0.008404337
0.09770993 0.14643538 0.062523685 -0.020641528 -0.21569447 0.23932472 0.4055091 -0.02989864
0.287075 0.28497788 0.18866974 -0.008828688 -0.056396402 -0.01480359 -0.07487987 0.035457015
-0.031466585 0.3289531 -0.17339456 0.23453325 -0.08417735 -0.009338875 -0.2715477 -0.013613788
0.06159177 0.4118108 0.61460745 0.25464523 0.16411625 -0.07242693 0.21163538 -0.12096383
-0.015020791 -0.16655593 0.3061098 0.086284935 -0.05165682 -0.15786764 -0.111062504 -0.03359373
0.08109009 -0.052921772 0.07471287 0.12780987 0.4034714 -0.09263591 0.061077215 0.24869162
-0.043885738 -0.019541737 0.24310076 0.21739258 0.4158075 -0.2660774 0.30484378 -0.086123474
0.1628085 -0.07210739 0.30931488 -0.009898983 -0.022055333 0.5886612 0.17163709 0.44997796
-0.020127067 0.16389956 0.15729493 -0.004466825 -0.030272106 -0.18226816 -0.052624654 0.09143896
-0.04155854 -0.09573486 0.05312432 0.17648229 0.4646288 0.031371295 0.47468734 0.42422992
-0.035597514 -0.047878545 -0.0063053234 -0.06964005 -0.18589678 -0.043217584 -0.42650193 0.021149706
-0.08315921 0.051953837 -0.075129315 0.0082480535 0.52399135 -0.042611483 0.13174668 0.3660118
0.30900535 0.19378093 0.30555168 0.12591974 -0.044593412 -0.04071794 -0.07811685 -0.045547746
0.09471811 0.55440515 0.24286257 -0.035128962 -0.041918535 -0.039327215 -0.07770518 0.052952252
-0.06555198 0.07907856 0.0004908251 -0.075937316 -0.047946695 -0.024155676 -0.08753039 0.42532873
0.5828827 0.4890344 0.007937194 -0.0037303392 -0.029946968 0.50060195 -0.03913883 -0.07283788
0.36054355 -0.042527035 -0.06267012 0.40759504 -0.061586175 0.3144645 -0.05857476 0.21005546
-0.039687134 -0.02349454 0.1911537 0.008209366 -0.024653869 0.007845943 -0.09792415 -0.0041141477
0.36452 0.09193856 -0.04982279 0.10392864 0.07356201 0.13206227 0.31264135 0.17783004
-0.10678632 0.21683374 0.3580885 -0.36928564 0.08625468 0.47867793 -0.04144733 -0.05968468

fc2.weight f4 [10, 256]
00000000: f2e6 23bd 7419 fcbc 4ba4 a33d f802 31be
00000010: 0731 283e 323d 2c3d d850 8e3d 722c c2bb
00000020: 33ed 80bd 5854 363c fbc2 ba3d 065d cc3b
00000030: 1a9e 22be 9a74 c33d 600f 3cbe e7ef 4d3d
00000040: 32cb f33d b47c 4ebe ec70 b83c 5fa8 093b
00000050: 2540 24bd ed03 93bd f6ad f13d ad69 f7bd
00000060: 63d8 26be abe3 06bd 71f2 c83c 47e1 06be
00000070: 4e44 b63d b320 bb3d 024f 903d 5220 983c
00000080: f606 113e e57e 4cbd 798c 91bc c8e8 70be
00000090: 2f31 2d3c 37c0 0ebe 13c1 6cbe bf2e 5dbc
000000a0: 8dde e4bc f408 2bbe f103 a4bc 2885 afbc
000000b0: bd92 d7bb b141 ae3d 73f6 083e f1ca b6bd
000000c0: 1bc9 babc 0670 093d a724 953d 504f 28bd
000000d0: 9c71 113e 3a3c 5abd ffe1 d5bc 0551 6f3c
000000e0: c06b 053d c433 c63c c2dc f13d 9689 c43b
000000f0: e907 87be b92f 5abe c5a0 40be bc59 5c3d
00000100: 5898 b63d 60cb 89bd 3b15 c1bd 1886 31bd
00000110: 4ada ca3c c31d bdbd b6ae a6bc e7ed 6dbe
00000120: 4913 9a3b de46 4abb f858 50bd 74ac a2bd
00000130: 1e3d 20be 863c b3bc 5c78 f3bc 3251 ca3d
00000140: f6dc aebd 6271 e7be c192 85bc a0fe ecba
00000150: 2eb5 29be caa5 62be cd9c 32bd b5c6 003d
00000160: 0e82 ddbd a5e5 9ebd d313 da3d 37fd 4cbd
00000170: da10 573c d618 abbc 1bdf d93c 4cba aabc
00000180: ba3c e9bd 431b 67bd 9ba5 1f3d 7bd8 9ebd
00000190: 3a73 a43d 6f46 e4bd 577a f33b 1815 24bd
000001a0: 2cc6 8bbe 1680 e23d df8d dcbc 8a23 f53d
000001b0: 4c32 b7bd 709b bcbd b9f8 97bd 6077 1cbc
000001c0: 7f80 473d 1e02 2ebe ae50 ca3c 7459 67be
000001d0: 40d8 35bb ce00 d1bc ad60 073e 7c99 54bc
000001e0: efc4 ce3d 3085 e1bd 94f8 4c3d f4fa a4bd
000001f0: 1469 f9bd fdbb 59be 8d7e c33d f585 353d
00000200: a1db f33c 62bc 613e 229d 00bc c399 c23d
00000210: 3f59 56bd c1c4 343e 967f e2bd b38a 9e3c
00000220: 8e5e e8bd 798c 21bd c67e 73be 46c9 d63d
00000230: 6144 cd3d bb76 f23d 27b3 ad3d 0626 3fbc
00000240: 0c87 c13d d7eb fb3b fe39 1b3e 6cca 8abe
00000250: 30a7 433e 31b4 1b3e 2603 923c e3c0 38bd
00000260: 0bdb 4abe 203a 0e3b dc23 82bd 42b9 cfbb
00000270: 76d2 94bc 60f8 db3d e5d7 9ebd ec78 1bbe
00000280: 6050 323e d1cc 983d aa4e 06be b831 e8bc
00000290: 620a 67bd 9136 543d 0ef3 d23c 2b76 d63d
000002a0: 554c fd3c 0ecb 13bc 20e9 b33d 4c02 07be
000002b0: 648e 16be fb2e 4bbd 6849 3bbe f489 5e3d
000002c0: ab80 6e3c 512c c0bb ffbf ebbd 01a2 073d
000002d0: 5dfc 2e3d d642 1bbd be6b ce3d b146 bbba
000002e0: b8a9 44bd 5b4a c53d 3a0f b13d 5ae5 3cbd
000002f0: 42bd 77bd 5433 a6bb 95ac cd3d 30f9 acbe
00000300: efdd a63e 0b7d 8dbd fe83 013e 5e32 0f3e
00000310: c313 6cbe 3724 a53b f286 62bd eadd f7bb
00000320: 858c 9c3d 7a00 8abe e97c 1ebe 9dd3 7ebc
00000330: ba73 41bd ac63 84bd 8e1e 1ebd 637c 11bd
00000340: 923e 54bd 71b8 0dbc 7307 93bd 1ae3 b2bd
00000350: 8972 fabc 900b 343d 62f2 47bd 1dc9 3dbe
00000360: c5d2 d2be 7c3f 77be e97b 893d 5c98 ff3c
00000370: 9704 5d3c 6a42 6a3d e249 3dbd 3eec 893d
00000380: bb3e ccbe 1435 09bd dbec f4bd 1ad6 1e3e
00000390: ea64 863d ec3a 2e3d 5bce 6dba d4fe c1bd
000003a0: 9659 bebd 0cf5 a63a e59e 5abd b8ff 2b3c
000003b0: 6760 1fbd e8fb 413d 801e b23d d7e5 953d
000003c0: 392b 47be 6830 4abe 4407 663c 1d0a c1bc
000003d0: 63f8 843d bc59 f33c 4e60 8b3e e3bc 95be
000003e0: 2e04 0d3e 8717 d6be e68e dcbc 962d 8d3d
000003f0: a3c0 cebd 0108 49be e0a0 0abd 1f2d f7bc
-0.04001517 -0.030773856 0.07990321 -0.17286289 0.16424952 0.042050548 0.069490135 -0.0059257085
-0.06295242 0.011128508 0.09119221 0.006236675 -0.15880623 0.09543724 -0.1836524 0.050277617
0.11903991 -0.20164758 0.022514783 0.0021004898 -0.040100235 -0.07178483 0.118007585 -0.12080703
-0.16293482 -0.032931965 0.024529668 -0.13171874 0.08899747 0.09137096 0.070463195 0.018570099
0.14162812 -0.049925704 -0.017767178 -0.23526299 0.010570808 -0.13940512 -0.23120527 -0.013499915
-0.027938152 -0.16702634 -0.02002141 -0.021425799 -0.006578772 0.085086234 0.13375263 -0.08925427
-0.022800973 0.0335541 0.072823815 -0.041091263 0.14203495 -0.053280093 -0.02610874 0.014606719
0.03257346 0.024194606 0.11809684 0.005997847 -0.26373222 -0.21307267 -0.18811329 0.053796515
0.08915776 -0.06728244 -0.094278775 -0.043340772 0.024762291 -0.09234192 -0.02034698 -0.23235284
0.004702006 -0.0030864994 -0.050866097 -0.07943049 -0.15648314 -0.021879446 -0.029720478 0.09878768
-0.08538239 -0.45203692 -0.01630533 -0.0018081255 -0.16573021 -0.22133556 -0.043606568 0.0314395
-0.108158216 -0.07758645 0.106483124 -0.050046172 0.013126576 -0.020885866 0.026595643 -0.020840786
-0.11388536 -0.056422483 0.038976293 -0.07756134 0.0802979 -0.11146247 0.0074303555 -0.04005918
-0.2729963 0.11059587 -0.026923118 0.11969669 -0.0894514 -0.09209335 -0.07420487 -0.009549946
0.048706528 -0.16992995 0.024696674 -0.22592717 -0.0027747303 -0.025513079 0.13220473 -0.012976047
0.10096156 -0.110117316 0.05004175 -0.08055678 -0.12178245 -0.21263118 0.09545622 0.044317205
0.029767813 0.22044519 -0.007849963 0.09501984 -0.052331205 0.1765318 -0.11059491 0.019353246
-0.1134616 -0.039440606 -0.23778829 0.104876086 0.10022808 0.11839052 0.08481436 -0.01166678
0.09449586 0.0076880264 0.15158841 -0.2710756 0.19106746 0.15205456 0.017823767 -0.045105826
-0.19810121 0.0021702126 -0.06354496 -0.006339223 -0.018166762 0.10740733 -0.07756022 -0.15182847
0.17413473 0.07460941 -0.13115945 -0.02834402 -0.056406386 0.05180985 0.025750663 0.104717575
0.030920187 -0.00902058 0.087846994 -0.1318447 -0.14702755 -0.04960535 -0.18289721 0.05433078
0.014557044 -0.005864658 -0.1151123 0.033113483 0.04272114 -0.037905537 0.10079144 -0.0014288035
-0.04801342 0.09633323 0.08645482 -0.046117164 -0.060483225 -0.0050720368 0.10042683 -0.33783865
0.32591197 -0.06908616 0.12648007 0.13984057 -0.23054413 0.0050397175 -0.055304475 -0.007564296
0.076439895 -0.2695349 -0.15477337 -0.015553382 -0.047229506 -0.064643234 -0.038603358 -0.035519015
-0.051817484 -0.008649931 -0.07179155 -0.087347224 -0.030572193 0.04395634 -0.04881514 -0.1853375
-0.4117643 -0.24145311 0.06713087 0.03120058 0.013489864 0.057192244 -0.04621304 0.06734513
-0.3989161 -0.033497885 -0.11959239 0.15511361 0.065622166 0.04253666 -0.0009071582 -0.09472433
-0.09294431 0.0012737825 -0.05337419 0.01049798 -0.038910296 0.047359377 0.08697224 0.07319229
-0.19450082 -0.19745028 0.014039818 -0.023564393 0.064926885 0.029705875 0.27221912 -0.29245672
0.13771126 -0.41814825 -0.026923608 0.068934605 -0.10095336 -0.1963196 -0.03384483 -0.030172883

fc2.bias f4 [10]
00000000: e9a9 c2be d6b6 0abe c0fe 0cbe 7f47 773e
00000010: d7b9 8c3e a90e 5cbd 2ee0 f9bc d08c 31bd
00000020: 9d60 453e c169 ad3c
-0.38020256 -0.13546309 -0.13769054 0.24148367 0.27485535 -0.05372492 -0.030502405 -0.04334718
0.19275136 0.021168591
